assets/CNN_fruits.tflite (tflite, 642780 bytes, 10 tensors)

arith.constant f4 [128]
00000000: 6228 45bd 7554 d93a 1c16 11bd 093c 053c
00000010: c07a 2f3a 07a5 ffbc 3fb1 1f3d 3325 0d3c
00000020: 54be b0bc 4d07 883c d996 8e3d 3ca8 27bd
00000030: e3e2 ba3c 7600 f83c cf01 3e3d 2402 b2bc
00000040: 9673 5dbc dafd 8bbc 3e60 01bc 60ad b73c
00000050: 7245 6c3c b3b7 3ebd 4654 b53b bdca f3bc
00000060: cb81 6f3b 70a5 9cbc f6d4 2b3d 74a1 ab3d
00000070: 8ae4 b7bc dc61 81bc ba55 78bc f0cf bf3c
00000080: 125a e9ba fe68 a2bc fa94 ffba 432e 35bd
00000090: b08a 173b ac00 573c c791 b53d 123d 693d
000000a0: 2a9e 8dba 0144 8dbc ad97 72bc b405 deba
000000b0: 4b72 953d b245 1c3d a6fd 403d 1d3e dfba
000000c0: f0f9 a3bc 0219 6fbd 3921 dabc 82ba cabc
000000d0: 291e ddbc f43a 11bc 21e2 93bc 887a ccbc
000000e0: 2180 41bd 2039 90bc cacf 47bc 9626 783c
000000f0: 5b90 4dbc fb61 86bc 6852 ac3d 1ffa 623d
00000100: 58c1 013c 7922 a53c 6472 a43c b330 833c
00000110: fe72 243d bb71 0ebc 7fd2 30bb b8c6 2bbd
00000120: 2b45 28bc 17cd bf3b 15a9 aebd 8c9f 223d
00000130: 2851 59bc aba0 0dbc 9e38 3d3d a5aa 313d
00000140: 474c 0ebc 5a66 9e3d daa1 6f3b f9e7 aebb
00000150: 8af7 543d b691 aebc 8e34 fbbc a494 21bd
00000160: fc2b f43b 45c6 42bc 26ac d3bc 99fe c8bc
00000170: 23e0 0f3e f918 de3c 5660 bfbc fb79 e83c
00000180: 5c78 97bc 7559 9d3c ab27 31bb 8c35 d93d
00000190: 4eb3 a7bd 0c7c e7bc de28 b63d b8f2 95bd
000001a0: 9fe8 bdbd 7b95 65bc 503a dcbc 0ed7 f23a
000001b0: 1a53 2e3d f8f1 14bd 6778 a7bd d3c4 2dbc
000001c0: ff55 2cbd 1033 253c 0ccf 94bc b42c c0bd
000001d0: 7074 9e3c 4bfc 48bb f303 803c cf0f 5d3c
000001e0: 740e 54bd 1e3b c23c 7f85 3dbc 34b3 bc3d
000001f0: b05d 65bc e016 a93b 314e dbbc 1418 d6bc
-0.048134215 0.0016580956 -0.035421476 0.008131989 0.00066940114 -0.03120662 0.038987394 0.008614826
-0.02157513 0.016605044 0.06962366 -0.040931925 0.022813266 0.030273657 0.046388444 -0.021729536
-0.013516327 -0.01708882 -0.007896481 0.022421539 0.014420854 -0.046561908 0.005533728 -0.02975976
0.0036545868 -0.019121855 0.041951142 0.08380404 -0.022447843 -0.015793733 -0.015157158 0.023414582
-0.0017803332 -0.019825455 -0.0019499355 -0.04423357 0.0023123436 0.013122719 0.088656954 0.056943007
-0.0010804583 -0.01724434 -0.01480667 -0.0016938956 0.0729719 0.038152404 0.047116898 -0.0017032061
-0.02001664 -0.05837346 -0.02662717 -0.024747137 -0.02699192 -0.008864153 -0.018052163 -0.024960771
-0.047241334 -0.017605364 -0.012195537 0.015145918 -0.012546624 -0.016404143 0.08414155 0.055414315
0.007919632 0.02015804 0.020074077 0.016014433 0.040148728 -0.008694108 -0.0026980934 -0.04193756
-0.010270397 0.005853306 -0.085283436 0.039702937 -0.013263978 -0.008644263 0.046196572 0.04337563
-0.008685178 0.07734366 0.0036564977 -0.005337712 0.051993884 -0.021309715 -0.030664708 -0.039448395
0.0074515324 -0.011888091 -0.025838923 -0.024535464 0.14050345 0.027111517 -0.023361366 0.028378477
-0.018490009 0.019207695 -0.00270317 0.106059164 -0.081884965 -0.028257392 0.088945135 -0.073216856
-0.092728846 -0.01401269 -0.026883274 0.0018527226 0.04255972 -0.036363572 -0.08177262 -0.010606009
-0.0420742 0.010082975 -0.018165134 -0.093835264 0.019342631 -0.0030667956 0.015626883 0.013492539
-0.051771596 0.02370983 -0.0115674725 0.09213868 -0.013999388 0.0051601976 -0.026770683 -0.026134528

arith.constant1 f4 [64]
00000000: ac59 d8bc 2f9d b33b c556 143c d45b 41bc
00000010: 90c3 04bd 4131 e9bb c816 edbb 8078 08bd
00000020: 724c 613b 03e1 11bd 290d b4bc b26a 383d
00000030: 5baf 99bd 9ec9 92bc 92a4 60bc c213 483d
00000040: 17e9 acbc f32d 4dbd fc8d 433b d1c9 bdbc
00000050: f147 c8bc d4b8 6cbb b541 16bd 0ac8 de3c
00000060: 1859 5b3b 72b7 62bc c003 c03b aba8 09bd
00000070: 0ab3 3ebd 446f babb 6b24 e2bb ece8 163d
00000080: 699d 84bc 97ef 35bd 8b11 2c3d bebf 3ebd
00000090: 0183 c6bb 6eb0 2cbd b8ba babc f489 12bd
000000a0: 0862 2fbd 49da 44bc a22d 74bd 14a1 a3bd
000000b0: 8ee7 45bd 1b83 313d 2b61 9e3d c213 9dbc
000000c0: 98bc 8cbb a457 9dbc 194d 8cbd 2691 493b
000000d0: 9f56 23bd 4cb3 26bc 441a 66bd 9be2 07bd
000000e0: f570 e0bc cf6d 71bd c574 b6bd dd54 633d
000000f0: a545 0b3d 080f 13bd 0f70 023d 7e00 ce3c
-0.026409946 0.005481384 0.009053891 -0.011801679 -0.032413065 -0.007116467 -0.0072353818 -0.033318043
0.003437784 -0.03561498 -0.021978932 0.045023628 -0.075041495 -0.017918404 -0.013711112 0.048846968
-0.02110724 -0.05009265 0.0029839268 -0.023167523 -0.024448367 -0.0036120908 -0.036683757 0.027194995
0.0033469852 -0.013837682 0.005859822 -0.03360812 -0.046557464 -0.0056895334 -0.006901314 0.036843225
-0.01618834 -0.044417944 0.042008918 -0.04656958 -0.0060580974 -0.042160444 -0.022794113 -0.035776094
-0.0428181 -0.012014934 -0.05961383 -0.079897076 -0.04831653 0.043337923 0.07733377 -0.01917446
-0.004294943 -0.01920683 -0.06850643 0.0030756681 -0.03987753 -0.010174584 -0.056177393 -0.033175092
-0.027397612 -0.058942612 -0.08908991 0.055500854 0.034001965 -0.035903007 0.03184515 0.025146719

arith.constant2 f4 [128, 3, 3, 64]
00000000: 329c 103c 54fa 8ebd e4d6 0b3d ee70 c9ba
00000010: 0ccb 92bd 53cb 79bb fb5e a23d 6b34 69bd
00000020: 00a6 3fbd e768 e3bc b6aa a2bc ed9d c13c
00000030: 6a20 a53c 6cf1 3bbb 460c ccbc fc6e bebd
00000040: 9b39 63bb ef4a e0bd 5497 02bc 49c0 643d
00000050: f2a7 a9bc ea67 98bd b4de 163d 63a2 17bd
00000060: 6890 59bd b66a 48bd 8ac0 bbbc 6fc1 bb3b
00000070: 8127 bc3a 277d 963c 1e3b 273c b9fd 26bd
00000080: 4ff8 2e3d 261c 02bc dc1e 11bd 3717 e2bc
00000090: ae6d 24bd dc41 f33c 0c4c f03c 16d9 7fbc
000000a0: d74e 29bd aad9 83bd 70f2 f1bc da76 98bd
000000b0: 0a96 34bd 3821 aebc 94f8 c6bd 16cd a43c
000000c0: 303e e53c 798c 56bd 6dca 223d 9359 0c3d
000000d0: 66d4 03bd e5f0 c5bd aafa 29bd 4c7f 9ebc
000000e0: fd95 c4bc 7d0d b23b 1bf6 7ebc d051 d33b
000000f0: 4250 91bd 20a1 24bc 2fad 24bd 70db 99bd
00000100: e6d0 493d 07c1 89bd a267 723c 2448 763b
00000110: 2b11 2a3d 34a6 b6bb a965 973d d281 88bc
00000120: b8ce 74bd 0f33 113d 3a58 9fbd 272f f4bd
00000130: 1fb2 813c 74a1 2c3a b5e8 1abd aa2b edbc
00000140: 69fc 2dbd 8fde e8bd 1b84 1bbc ceea 26bd
00000150: 5c1d 66bb 31da 48bd 6498 583c 84d7 a3ba
00000160: ee98 1f3d c686 a03c 1578 dfbb 869c 59bd
00000170: 3acb 823d 1286 3dbc a720 51bd bd6b 4fbd
00000180: a932 71bb c8da 173c 6124 44bc fc57 013c
00000190: deef 043d 0419 013d f5bf 9cbc 2d5e febc
000001a0: f756 5abc 5a85 0b3c d2f3 0dbd 9425 10bd
000001b0: d60b e9b9 26b7 88bd 6d20 01ba 523e 383c
000001c0: 7af7 b53c e26f a03c 5de8 ddbc 693a e6bc
000001d0: 8684 58bd 3664 32bd 8208 e93c 0f05 26bc
000001e0: 46f5 30bd 7503 c83c 4a1f ae3c 7ed1 803c
000001f0: 121e 57bd 8188 c5bc da6e 943d b318 15bd
00000200: db8c 273c 3c20 4a3d de11 5e3d 09c1 87bd
00000210: 1e30 bf3c 6b20 b5bd 1cb1 0ebc 7530 e4bd
00000220: 8d3a 453c 7bfd 8a3c ecdd a0bd 789b c9bc
00000230: c089 b6bc 8d0e 593d 57a0 163d ade2 95bd
00000240: 01ce 033d 0586 0dbe 0828 4238 41cd 36bb
00000250: 4990 ea3c 40e6 253d 9523 17bd 2b19 0ebd
00000260: 7861 733b 06b7 173d a8ff e43b 07d1 99bd
00000270: 3aa1 7c3c 21bb 1c3d 4987 f8bc 0171 85bc
00000280: e7b4 a33d 9e03 653d 5fbd 783d 58c0 c5bc
00000290: 7c54 1f3d 6803 603c 5cad c13b 19ed 2fbd
000002a0: 2839 e13a 72e4 e1bc a104 02bb 733a 103d
000002b0: 5e09 46bd 4b4e b9bc c366 bdbd 2fac 553c
000002c0: 4ce5 b1b5 c03d bc3d 26ca 59bc a11b c1ba
000002d0: 4455 4b3d 9bf0 b7bd 2d0b 2dbc cd58 61bd
000002e0: 32f6 98bd 00e3 d4bc b343 4c3d 7420 ce3c
000002f0: 4f47 e3bd b92f 823d 05f2 483d d39b bebd
00000300: 659a e43c 2f60 723c 13af b6ba 66f4 71bd
00000310: 162d 28bd 29a2 5b3c 4c1b 313d 1d47 813c
00000320: 8506 3d3d a22c 73bd c694 92bc bdde b23c
00000330: f487 47bc 258e a5bc bd1d 6fbd 94bd ffbb
00000340: 2d4e 6abd fcf2 dfbd b14b cbbc 88ac cebc
00000350: 0c87 0bbd eeb3 66bb 78ce 68bd ab3a 36bd
00000360: f263 09bd 46ec d43c b3f3 a3bd 1be0 b2bc
00000370: fd39 0f3d 4a50 233d e750 343d 8bd8 06bd
00000380: bc0f 5e3c 4432 53bd 4a79 53bd 61c5 ea3c
00000390: b96d b9bb 795b 0dbd f0cf 523d 0e65 323d
000003a0: 37a9 1abc 50bc 8f3c ca95 493d 1242 15bd
000003b0: 6f39 363d 8d75 81bd ef2c 3fbc 77ab 53bd
000003c0: 0e38 0f3c 7227 93bc fbe7 21bd 3808 cdbc
000003d0: 509a 99bd 0b72 503d 357d 983c 76a3 f93c
000003e0: 018e 91bd f3e8 f03c 13d9 703d 7fb8 83bd
000003f0: 7228 54bd 1036 3d3b e05d 1f3c 14d1 8cbd
0.008826302 -0.0698134 0.034140483 -0.0015368739 -0.07167634 -0.0038115575 0.07928272 -0.056934755
-0.04678917 -0.027759982 -0.019856792 0.023634875 0.020157058 -0.0028677834 -0.024908196 -0.09298512
-0.0034671787 -0.109517924 -0.00797065 0.05584744 -0.020709965 -0.07441695 0.03683348 -0.0370201
-0.053116232 -0.048929892 -0.022918958 0.005729846 0.0014355035 0.018370224 0.010206966 -0.040769313
0.042717274 -0.007941281 -0.03542982 -0.02759896 -0.04014366 0.02969449 0.029333137 -0.015615722
-0.041334953 -0.064380005 -0.029534549 -0.07444544 -0.0440884 -0.021256074 -0.09715381 0.020117324
0.027983755 -0.05238006 0.03974383 0.034265112 -0.03218498 -0.096650876 -0.041498818 -0.01934781
-0.023997301 0.005433737 -0.015561606 0.006448962 -0.07095386 -0.010048181 -0.040204223 -0.075125575
0.049271487 -0.0672627 0.014795216 0.003757962 0.04152028 -0.005574012 0.07392437 -0.016663466
-0.059767455 0.035449084 -0.077805 -0.11923056 0.015832005 0.00065853377 -0.037819583 -0.028951485
-0.042477045 -0.11370575 -0.009491946 -0.04075127 -0.0035112714 -0.04903621 0.0132199265 -0.0012500142
0.038964204 0.019595515 -0.006819735 -0.053127788 0.06386419 -0.011567609 -0.05105653 -0.050639857
-0.0036803877 0.00926847 -0.011971564 0.007894512 0.032455318 0.031517997 -0.019134501 -0.031050766
-0.013326398 0.00851568 -0.034656353 -0.035192087 -0.00044450042 -0.06675558 -0.0004925791 0.011245327
0.022212733 0.0195846 -0.027088339 -0.028104024 -0.05286076 -0.0435526 0.02844644 -0.010133042
-0.04320266 0.024415711 0.021255154 0.015724894 -0.05251891 -0.024112942 0.07247706 -0.036400508
0.010226454 0.049347147 0.05421626 -0.066286154 0.023338374 -0.08844074 -0.008709218 -0.11142055
0.012037885 0.016966572 -0.07854828 -0.024610266 -0.022282481 0.052992392 0.036774006 -0.073186256
0.032178883 -0.13820656 4.6290486e-05 -0.0027893337 0.028633254 0.040502787 -0.036899168 -0.03469197
0.0037136953 0.03703978 0.0069884844 -0.07510572 0.015419299 0.038264398 -0.030337946 -0.016289236
0.07993489 0.055911653 0.060727473 -0.024139568 0.03889893 0.013672687 0.0059105586 -0.042950723
0.0017183172 -0.027574752 -0.0019839185 0.03521199 -0.048348777 -0.02262034 -0.09248116 0.01304154
-1.3254262e-06 0.091914654 -0.013292825 -0.0014732966 0.049641863 -0.08981439 -0.010561747 -0.055016328
-0.07468833 -0.025987148 0.04986925 0.02516196 -0.110975854 0.063567586 0.049058933 -0.09307065
0.027905652 0.01479344 -0.0013937674 -0.059070967 -0.041058622 0.013405361 0.043238923 0.01578098
0.046148796 -0.059368737 -0.017893206 0.021834726 -0.01217841 -0.020209381 -0.05837797 -0.007804582
-0.05720346 -0.109350175 -0.024816366 -0.025228754 -0.034064338 -0.0035202461 -0.05683753 -0.044489544
-0.03354258 0.02599157 -0.08005466 -0.021835377 0.03496741 0.03987149 0.044022467 -0.032921355
0.013553556 -0.05156161 -0.051629342 0.02865857 -0.005658832 -0.034511063 0.051467836 0.043553405
-0.009439758 0.01754585 0.049215116 -0.036439963 0.044488367 -0.06321249 -0.011668428 -0.051677193
0.008741392 -0.017963145 -0.039527874 -0.025028333 -0.07500136 0.05089001 0.01861439 0.030473452
-0.07107163 0.029407954 0.058800768 -0.06431674 -0.051796384 0.0028871335 0.009726971 -0.06875816

arith.constant3 f4 [64, 3, 3, 32]
00000000: 1585 3c3d bf19 a8bd 8456 71bc cf74 153c
00000010: ccd7 c13c 963b fcbc a9f8 563d 1548 42bd
00000020: 0334 8dbd f28e 4abc 90dc 8cbd 81f5 a6bc
00000030: c04e a9bd a72c 54bd 4c57 51bc ce44 943c
00000040: 2a8a 473c cb6f 2cbd 0161 8a3c cd2d e9bd
00000050: 7205 ebbb a6c9 0bbd c0d8 6a3c 32bf 73bc
00000060: bf64 443a a6fa 00bd 9ef6 01bd bf90 e73b
00000070: 750a 2abd 476c 81bd 6c1f a4bc 9b63 a8bd
00000080: b7d4 c63c a21f b63c 8527 703c e814 813d
00000090: a83a a7bd 86ce 9cbd 555a cebd e2b3 253d
000000a0: 2cb6 abbc 1f64 7e3d 571b b9bc ce3c 5fbd
000000b0: 8cd0 c4bd 9d62 6bbd 51cb 833c 7f34 bcbd
000000c0: 4de9 4abd 6303 a8bd b2ed 7a3d 7022 d4bd
000000d0: 8b90 08bd 940b 6b3b 0050 c73c 5dd0 24bd
000000e0: 56df 36bd 62c2 403d be5c 803d 3630 8cbd
000000f0: 0ca2 16bd 5a15 1dbd 52c6 4a3d 03f7 2e3d
00000100: 60c0 0f3c 9797 8c3d c01b 9dbc ee58 893c
00000110: 505a 8cbd a2fa e43b d57d 243d 305b bebc
00000120: 5427 423d 8c50 54bd 8ca1 b2bb 77a9 f63c
00000130: cf8b 2dbd f230 c9bc ae65 c4bc e4d9 033d
00000140: 7cd1 3a3c d6f9 65bd ac62 98bd 15c6 94ba
00000150: aaff 993c 508b abbd 5620 453d 3f01 543d
00000160: c77f 8ebc fbfe 22bd f741 a5bd 16e7 ea3b
00000170: 8614 0bbd d765 473d e6af 5fbd 378c d7bd
00000180: 16a2 643d e3f7 b0bd 5aed 76bc 9941 a7bc
00000190: b71e ea3b a76d 4bbc 7c9a 2cbd c3a7 443d
000001a0: 103c 1c3d 84e3 b9bc 986f 73bd 7f60 3a3c
000001b0: 8ea3 06bc 1e75 0dbd 42f4 57bd 27c3 77bd
000001c0: 7f3b 243c 30bf a7bb e762 99bd bf7d 6bbd
000001d0: c2f4 2e3d 76d4 9ebd 00fa 68bd df2b 0bbd
000001e0: 6f41 39bd 3613 56bd 9356 90bd d9b0 693d
000001f0: 04f7 b83b ceb7 febc 30a0 933b 2dff 883d
00000200: bb69 7f3d 6752 58bd dd74 52bd d2d4 5ebd
00000210: de3a 8e3d 20a9 c73c c8cd 87bd 37eb b0bd
00000220: 36a5 263d ab5f 41bd 3f8c 8abc d878 82bd
00000230: 0e04 b4bd c6b7 643d 39b5 c9bc f41d 5cbd
00000240: 6bda 6d3d 40a0 97bc 34aa 8dbd 9677 8f3c
00000250: ff59 a2ba 1446 393d 6019 b6bc 7526 8dbc
00000260: 7f89 c8bc 9054 6dbd e7eb 053b 1c7d a4bc
00000270: b47e 5cbd 374e 3a3d c068 78bc b983 7e3c
00000280: 1dd3 8fbd fff2 44bd 9929 553c b2a4 65bd
00000290: 1b6f 6e3d f7c6 3fbc 2fe5 a4bc c85d 0ebd
000002a0: 8da1 8abd 719c 423c 3590 393d 36b6 a6bd
000002b0: 5743 ec3c 38b7 483d b58a 783c b97e debc
000002c0: 2bd9 b2bb 300c e53b 82a1 87bd b662 593d
000002d0: 575e 94bd 4741 8e3b 4c8f 973c 8155 ccbd
000002e0: 9d26 a6bc 004a 84bc 19c3 a5bd eeee c93b
000002f0: bb6c 273c bd76 2d3c 9826 113c 3b4b 183d
00000300: 0e02 bf3a ac89 263c 74d9 16bd de1e 88bd
00000310: 8dc2 c9bc 8b79 64bd 6c21 92bd 30aa 9dbd
00000320: 49fc 273d 3503 6bbd 8a26 ddbc 2314 67bd
00000330: aff7 3a3d 3ded 72bd 5454 8bbd 0134 6c3d
00000340: 9008 babc 50a3 9fbb 6a9d ce3c 3663 90bd
00000350: d223 7fbb 9dc0 c0bd e80e 45bc 6861 28bd
00000360: 50eb 84bd d6e6 babc bb23 8fbd f613 08bd
00000370: 8b10 13bd 1b35 28bd 90a4 49bd c013 003d
00000380: 5e76 db3b e7ae 2f3d 6626 93bd b1a4 73bd
00000390: eb0b 8cbd 4eb1 033d 2576 083d 23dc b0ba
000003a0: 511f 02bd 77cc c3bc f171 92bd 4e34 553d
000003b0: da8b 47bd 54f5 a4bb e0a8 b0bd 6cc0 a73c
000003c0: 027b c5bc d1f2 853d e359 503d ac42 c1bd
000003d0: 75cf f3ba c114 7dbd 4c2c 9d3c 1776 c3bc
000003e0: 6582 bfbd 14d9 f13c 8a06 d7bb d41e 8d3c
000003f0: e2be 4fbd ebbd 8c3d e008 83bc 80fe 9cbd
0.046025354 -0.08208036 -0.0147301 0.009122088 0.02366247 -0.030790132 0.052483235 -0.047432024
-0.06894686 -0.012363182 -0.068780065 -0.020380737 -0.082669735 -0.051800396 -0.012777161 0.018099215
0.012178937 -0.0420988 0.016891958 -0.11385689 -0.00717228 -0.034127854 0.014333904 -0.0148771275
0.0007491819 -0.031489037 -0.031729333 0.0070668156 -0.04151388 -0.063194804 -0.020034514 -0.08222123
0.024271352 0.02223188 0.01465786 0.06302816 -0.08165485 -0.07656579 -0.10075823 0.040454753
-0.02096089 0.0621072 -0.022596044 -0.054501347 -0.0961009 -0.05746709 0.01608816 -0.091897
-0.0495389 -0.08203771 0.06126184 -0.10358131 -0.033340972 0.0035865055 0.02433014 -0.040237773
-0.044646583 0.047060378 0.06267689 -0.06845133 -0.036775634 -0.03835044 0.04950554 0.042716037
0.008773893 0.06864851 -0.019178271 0.016766038 -0.06853163 0.0069878856 0.040159065 -0.023236841
0.047400787 -0.051834628 -0.005451387 0.030110104 -0.04236966 -0.024559472 -0.023974266 0.03219022
0.011402484 -0.056146465 -0.07440695 -0.0011350537 0.018798668 -0.08376181 0.04812654 0.051759
-0.017394913 -0.03979395 -0.080692224 0.007168661 -0.03395512 0.048681106 -0.05461111 -0.10524791
0.05581864 -0.08641031 -0.015071237 -0.020417022 0.007144775 -0.01241628 -0.042139515 0.048011553
0.038143218 -0.022691496 -0.059432596 0.0113755455 -0.008217705 -0.03453552 -0.052723177 -0.060488846
0.010023951 -0.005119227 -0.07489567 -0.057492968 0.042713888 -0.077553675 -0.056879044 -0.033977386
-0.045228418 -0.052264415 -0.07047763 0.05705342 0.005644681 -0.031093504 0.00450518 0.06689296
0.06235669 -0.05281296 -0.05138098 -0.05440218 0.06944822 0.024372637 -0.066310465 -0.08638614
0.0406849 -0.047210377 -0.016912578 -0.06370705 -0.08789836 0.055839323 -0.024622547 -0.053739503
0.058069628 -0.01850903 -0.06917229 0.017513078 -0.001238644 0.045232847 -0.022228897 -0.017230252
-0.024479626 -0.057941973 0.0020434798 -0.020079188 -0.05383177 0.045484748 -0.015161693 0.015534335
-0.070226885 -0.0480833 0.013010406 -0.05606527 0.058211427 -0.011705152 -0.020128815 -0.034757406
-0.067690946 0.011878119 0.045303542 -0.08140223 0.028840704 0.049002856 0.015169789 -0.027160035
-0.0054580173 0.0069899783 -0.06622602 0.053072654 -0.072445564 0.0043412778 0.018500946 -0.09977246
-0.020282084 -0.016148567 -0.080938525 0.006162516 0.010218794 0.010587391 0.008859299 0.03718112
0.0014572756 0.0101646595 -0.036828473 -0.066465124 -0.024628902 -0.055779975 -0.07135281 -0.07698476
0.041012082 -0.057376105 -0.026995916 -0.05641569 0.045646366 -0.05930828 -0.06803194 0.057666782
-0.022709161 -0.0048717633 0.025221545 -0.07050173 -0.0038931263 -0.09411738 -0.01202748 -0.04110852
-0.06490195 -0.02281515 -0.06989237 -0.03322216 -0.03590445 -0.04106627 -0.049229205 0.031268835
0.00669746 0.04289141 -0.07185058 -0.059483234 -0.06838211 0.032151513 0.033315796 -0.001349334
-0.031768147 -0.023901207 -0.07150639 0.052051835 -0.048717357 -0.005034128 -0.0862596 0.020477496
-0.024106506 0.06540454 0.050866973 -0.09436545 -0.0018601256 -0.06178737 0.019186161 -0.02386002
-0.09351043 0.029522456 -0.006562059 0.017226614 -0.05071915 0.068721615 -0.015995443 -0.076657295

arith.constant4 f4 [6, 128]
00000000: fd01 25be ace0 233e 97d1 6b3d 0986 efbd
00000010: 5866 67be 944b c83d e5b6 e23d 1d95 da3d
00000020: 8d92 4f3e 6c02 f03b 278f 373e 193f 0a3e
00000030: f3ec ec3d 6774 febd 4ae8 a73c 5b10 2f3d
00000040: 6abc 053e 25e9 c7bc 62b8 6b3c 0204 003d
00000050: 1c81 b23d 9f37 203e 7d5c 6f3d 4de6 0cbe
00000060: ec18 0dbe 35c8 0c3e cd2d 6d3e 188f d5bd
00000070: 9328 aabd 08d4 9dbc 4c0b 533d 039e 4fbe
00000080: acc4 ccbd 7d51 7dbc 85de 3d3e 829a 193e
00000090: 71bc 58be c0cb 4bbe d485 923d f146 253e
000000a0: e4a8 253e 7ba3 723d d600 123d c75e d1bd
000000b0: 29b2 e2bd 2c95 8cbc 82c0 81bd bfaa b43d
000000c0: e019 abbc ab11 4ebe 3e3a f3bd d763 2c3d
000000d0: 21c7 0cbd 20ac 35be b344 953c 4c2a 15be
000000e0: add3 55be cb81 7ebe ed74 3ebe 2225 213e
000000f0: 8878 723c b000 1c3e 20f1 96bc c794 3cbe
00000100: 71f9 923c 3c1a 8d3d e8f4 0bbd c385 673e
00000110: 3d17 2d3e cc1a 61be 8291 46be 1f15 d5bd
00000120: 8863 fc3d 4be9 03be ce4c 3e3d 36c3 1fbe
00000130: 5938 073e c09a 5e3e 31dd eebd c522 223e
00000140: ab85 81bd 2028 22be 63a0 16be 1839 093c
00000150: 2ae0 18be 3404 c63d 4e4d 183e d0b1 c2bd
00000160: 142e 7ebd e7ce 66be 6023 d63d ba45 533e
00000170: cd2b 8ebe c028 68bc 0467 7ebe b53c 2e3e
00000180: 19f5 0ebd ce18 30be afe3 463e 8efc 4a3e
00000190: aab6 e03d 1ce3 ae3d 0b2a 57be 5c18 793d
000001a0: 03e2 56bc d9da e53b e11c afbd 96f8 e23c
000001b0: e61c e93d 353c 483e 8692 fb3c 7347 763d
000001c0: 4d67 f4bd 6898 f83d da0d 02be a976 ecbc
000001d0: 0517 303e 1582 19bd 36cd 1e3e c54e 5dbd
000001e0: cb1f 443e c0bc 1cbd 25ad bcbd 68d7 143d
000001f0: b309 18be 7e20 59bd ed4c 113e 663f f13d
00000200: f1ee e93d e204 a1bd c26e 623e 2e6f 3a3e
00000210: bca2 c3bd 75e3 2fbe f65a 753c a325 06be
00000220: 6509 f13d e76e 0d3e e2bf 923d 0a90 0bbe
00000230: a62e 153e 001e b6bc a2d9 4ebd 8b14 0bbe
00000240: c872 c8bd 0698 443e 65f0 00be b01c a8bb
00000250: b76c 793d d525 553d 0819 b53d dfee 3cbe
00000260: 68e3 573e b37d e9bd a02c bd3d ff5b eebd
00000270: 58f6 dc3d 6266 223e 5f27 f1bc a8c6 7e3e
00000280: d733 eabd 73c6 16bd 5a12 1ebb 588d d23d
00000290: 7d5b 74bd 96b5 80bd f84b dd3d c657 9e3d
000002a0: 49ef 023e 0302 39be f273 5dbe d1d8 693e
000002b0: f003 20be 4e7e 64be bd79 44be a509 c63d
000002c0: 8acf 1cbe 6d2d 5ebe cd99 21be 8883 3cbe
000002d0: 28ac 63be e818 9bbd 93cb 103e 31cc eabd
000002e0: b940 b33d 0eaf a9bd 5b16 fd3d 64a5 a1bd
000002f0: 8b39 2b3e 8278 053e c401 843d 9340 9d3d
00000300: 0da1 d53d dac0 023e d623 683e 3313 3bbe
00000310: e97c 0d3e b5ff 08be 3e9f ccbd d5f1 833c
00000320: 6dc8 d63d 083b c23d 9ff6 11be 962a 083e
00000330: 7f1f 2b3e 149a 403e 0cd1 123e 52ca 743e
00000340: 800b 86be a9f9 a93d 1be2 fdbd 9051 493e
00000350: e981 7b3e c07f 5dbe bac3 133e 9c0d 003e
00000360: d98d 5bbe c066 53be 0c8e 3abe 1c24 b73c
00000370: c18c 54bd 40af 99bc 8b9a ca3c 1f37 f1bd
00000380: 9a93 623e 7d3e 1d3e 9845 5ebc ef6f bcbd
00000390: 086f cdbd c734 89bd 01e9 0f3d 83b0 063e
000003a0: 7a11 1dbe e21c 86be 219e 393e df7c e83d
000003b0: 529c 45be 084b 9d3c 6fa6 6b3e 8dff 863e
000003c0: 86bf 543e 67a0 d93c 9868 96be cdf5 e53a
000003d0: d3fe 3b3e c2be c43b a3fd 52be f04a 203e
000003e0: db0b 39be 7fa3 0d3c 22d7 2f3e bb33 4cbe
000003f0: 6acd 113e 4f8e 453e a480 43be 0173 43be
-0.1611404 0.16003674 0.057572927 -0.11695487 -0.22597635 0.097800404 0.110700406 0.10672972
0.20270748 0.0073245075 0.17925702 0.13500632 0.11568632 -0.12424546 0.020496506 0.042740207
0.13060156 -0.024403164 0.014387222 0.031253822 0.08716032 0.15646218 0.058437813 -0.13759728
-0.13779038 0.13748248 0.23162003 -0.104276836 -0.0830852 -0.019266143 0.051524445 -0.2027512
-0.0999845 -0.015461323 0.18541916 0.15000346 -0.21165635 -0.19901943 0.07154432 0.16140343
0.16177708 0.05923794 0.03564533 -0.102231555 -0.110691376 -0.017160974 -0.06335546 0.0882163
-0.020886362 -0.20123927 -0.11876343 0.042087402 -0.03436959 -0.17741442 0.018221235 -0.14566916
-0.20881529 -0.248542 -0.18599291 0.15736821 0.014799245 0.15234637 -0.018425524 -0.18416129
0.017941209 0.068897694 -0.034169108 0.2260962 0.16903396 -0.21982878 -0.19391444 -0.10404419
0.123236716 -0.12881963 0.046459965 -0.15601811 0.13205089 0.2173872 -0.11663283 0.15833576
-0.06324323 -0.15835619 -0.1470962 0.008375429 -0.14929262 0.096687704 0.1487324 -0.09506571
-0.062055662 -0.22539864 0.10455966 0.20632067 -0.27767792 -0.014169872 -0.24843985 0.17015345
-0.034901712 -0.17196962 0.19422792 0.19822904 0.109723404 0.085394114 -0.21012132 0.060814247
-0.013115409 0.007014614 -0.0855043 0.027706426 0.11382465 0.19554217 0.030709516 0.060126733
-0.119337656 0.12138444 -0.12700596 -0.028865175 0.17196281 -0.03747757 0.1550797 -0.0540302
0.19152753 -0.038265944 -0.09212712 0.03633824 -0.1484745 -0.053009503 0.14189501 0.117796704
0.114225276 -0.078622594 0.22112563 0.18206474 -0.095525235 -0.17176612 0.0149753 -0.13100295
0.1176937 0.13811837 0.07165505 -0.13629165 0.14568576 -0.022231102 -0.05050052 -0.13582055
-0.09787518 0.19198617 -0.12591703 -0.005130373 0.060894694 0.052038033 0.08842665 -0.18450497
0.21082842 -0.11400928 0.09237027 -0.116386406 0.10789174 0.15859368 -0.029437719 0.24880469
-0.11435669 -0.03681035 -0.0024119825 0.102808654 -0.059657563 -0.06284635 0.108055055 0.07731585
0.12786593 -0.18067174 -0.21626261 0.22836615 -0.15626502 -0.22313806 -0.19187064 0.09669808
-0.15313545 -0.21697016 -0.15781327 -0.1840955 -0.22233641 -0.0757311 0.14140157 -0.11464728
0.08752579 -0.08285342 0.123577796 -0.07892874 0.1672117 0.13034251 0.06445649 0.07678332
0.104311086 0.1276888 0.2266992 -0.18269043 0.1381718 -0.13378794 -0.099913105 0.016106525
0.10487447 0.094839156 -0.14254235 0.13297495 0.16711234 0.18808776 0.14337558 0.23905304
-0.2618065 0.08299572 -0.12396642 0.1966002 0.24561276 -0.21630764 0.14430133 0.12505192
-0.2144083 -0.20644665 -0.18218249 0.022356085 -0.051892046 -0.018760324 0.024731895 -0.11778092
0.22126618 0.15355869 -0.013566397 -0.09201037 -0.10030943 -0.066995196 0.03513432 0.13153271
-0.15338698 -0.2619391 0.18126728 0.11351942 -0.19297913 0.019200817 0.23012708 0.26366845
0.20776185 0.026565744 -0.29376674 0.0017544568 0.18358926 0.0060041854 -0.20604567 0.15653586
-0.18070929 0.008644938 0.1717191 -0.19941609 0.14238515 0.19292568 -0.19092041 -0.1908684

arith.constant5 f4 [128, 512]
00000000: db5d 08bd f6e2 803d 9b15 a7bd b138 8d3b
00000010: 4b79 fdbd 724e adbd a309 b3bc 460a 4ebd
00000020: 97d4 e0bb ef94 4c3c aae6 9f3b 05e4 53bd
00000030: a1f1 af3d bd52 8bbd 82de 813b b377 c83d
00000040: 8569 74bd a766 023d 94b4 4f3d dba3 113d
00000050: b015 cd3d 8daa b23d ee86 1abd 8218 af3d
00000060: 4927 d6bd 1a38 04bd b5d7 be3c d30c 8a3c
00000070: ce65 51bd 643c 473d a1f6 ac3d ce0b a0bd
00000080: 0157 28bd a14a 75bd 7b54 803d 154d b43d
00000090: 0e51 bbbd 1f2e 0f3d ab98 523e 57d0 19bc
000000a0: 02c9 38bc 2de7 863d d2e0 fdbb d7ea a63c
000000b0: 44f4 853a 16cc c73d ff09 17bd 746e 37bc
000000c0: 4502 20bd b213 f4bd 61e3 b13c 0fe1 4f3c
000000d0: b32b d4bc 12fc 45bd 04b6 08bd 90fa 523d
000000e0: 42c7 a1bd 98ea 83bd 10dc 273d 48d8 33bd
000000f0: e440 983d 32ed b93d 659e 12be 956c 6a3c
00000100: 16fc 60bc 63c7 483d 4f57 3abd cb1f e4bc
00000110: b60b 033d 3893 8dbd 3df7 d6bd f0c3 b33d
00000120: 3623 efbd 7a94 0cbc 9283 dbbd 877f dbbc
00000130: fc03 c2bd 97e9 e13c 18e8 24be 8498 983c
00000140: ec0a 5cbd 24e9 b33d 7ba8 823d 6468 c53b
00000150: 00cf 653d b35c 9a3d dbcc dabc 3fd7 e5bd
00000160: e4f2 71bc 47b0 1a3c 0bb1 563d 8f20 3d3d
00000170: b9e6 9a3e 480f 8f3d 4728 823d 6a20 bebb
00000180: b3ef bc3c 3ab9 c43d 0723 3ebd a025 18bc
00000190: 2ea2 13be 1a88 b2bd b602 f93d 024c 5bbe
000001a0: 3feb 14be eb78 2cbd fdf8 93bd 9259 ad3b
000001b0: cc95 a43d 457c 493d 6844 00bc 101d 2ebd
000001c0: 7027 853d d88a 673d 4d40 0e3b 66e1 133e
000001d0: 3e85 2f3d 25cd b7bc 31f7 a73d 7dea c2bd
000001e0: 6dd4 563d a686 c13d 892b c5bc d8fe 683d
000001f0: 7d20 18b9 8620 d43d 15b0 03bd 157a 433c
00000200: 0204 dbbd d7e8 35bd 799a 31bd bbed e73c
00000210: 853e 03be b178 8f3d 29a2 6dbc 2437 2f3b
00000220: fced eb3d 4d65 5f3d b5dd 8dbd d7f3 853d
00000230: adfb d63d 6948 0f3d 1868 193c 54a8 093c
00000240: 83e6 cebd 3a4c 553c efae 483c a8fa c3bb
00000250: e713 81bc 56c2 c7bd bbc2 813d 70c2 eb3b
00000260: 300c 953d 425a c7bd 4355 58bc f153 7bbd
00000270: 882b abbd 0aaf 223a 489e 9abd 4905 9bbd
00000280: 9e6d 523d 53d8 c5bd 21d6 3e3d ebda 93bd
00000290: 9940 f03c e6f9 36bd 5cee 4b3e 62d4 8e3d
000002a0: 991b 5f3d 864b fcba 49f3 31bd d8dd 7b3a
000002b0: 9cba b53d 0887 bebc c699 5fbb 5e0c f63b
000002c0: ccdf ccbd 8bec 47bd ee20 03bd cc16 27bd
000002d0: 60c8 5a3d cefa aebd 995f 3fbc bb96 98bd
000002e0: 7da8 85bc 1fbf c2bd 7968 a8bd 7439 69bc
000002f0: fba8 c73d d0a1 b23d c4c7 d6bd b9f9 0abe
00000300: 2e50 26bd d88e df3d 25ab adbd 0b98 273b
00000310: 486e 5dbc 74d5 64bd bdd5 dbbd 3f61 7bbc
00000320: 4191 12bc 649f 113d bd9d c73d 9937 94bd
00000330: bd27 3dbd 8e68 5bbd 85c5 b2bd 76d3 443c
00000340: c3fe 623d f72d 933d 1c8f bb3d 9606 c83d
00000350: 1aa0 2ebd 95ea 3abd 3c99 c8bc 0a67 79bc
00000360: 6f87 80bb 7b9e 463d 4d00 bc3d f4d7 9f3d
00000370: 23b6 813e 30f8 bd3d 26d9 71bd 8473 1d3d
00000380: 3aea 223c 12ed de3d c750 21be f121 ad3d
00000390: 0a95 a0bd 640f 923c 03fb 6c3c f4fa b8bc
000003a0: 4ee4 aebd 85fa 06be 285f 923c 66b1 ce3d
000003b0: 6aed c63d 89b7 d0bd a38b b1bd 0559 17bd
000003c0: 5365 6e3d d0fb 8d3d 63b2 733d 2ce3 f73c
000003d0: 7734 983d 1904 553d 4417 883c 1535 52bd
000003e0: d680 383d a4dc 1a3d 3553 70bd bb06 90bc
000003f0: 7dc6 6f3d 73fc 673d d4c8 d73c f8b5 89bd
-0.033292633 0.06293289 -0.08158418 0.0043097367 -0.123766504 -0.08462228 -0.021855181 -0.050302766
-0.00686128 0.01248668 0.004879792 -0.05173113 0.08591009 -0.068028904 0.0039632926 0.09788456
-0.059670944 0.03183618 0.050709322 0.035556655 0.10013902 0.08723936 -0.037726335 0.08549596
-0.10456712 -0.032280065 0.023296217 0.016851818 -0.05112248 0.048641577 0.08445478 -0.078147516
-0.0410986 -0.059885625 0.06266113 0.08803765 -0.09146319 0.034956094 0.2056605 -0.009388051
-0.011278393 0.06587062 -0.007747748 0.020375652 0.0010219892 0.09755723 -0.036874767 -0.011195768
-0.039064664 -0.11917819 0.021714868 0.0126879355 -0.025899744 -0.048336096 -0.03337671 0.051508486
-0.078993335 -0.064412296 0.040981352 -0.043907434 0.07434252 0.090784445 -0.14318235 0.014308115
-0.013731977 0.049018275 -0.04549342 -0.027847191 0.03199359 -0.069128454 -0.10496376 0.087776065
-0.11676638 -0.008580321 -0.107184544 -0.026794208 -0.09473416 0.027577205 -0.16104162 0.018627413
-0.053721353 0.087847024 0.06379791 0.006024407 0.056105614 0.07537212 -0.02670901 -0.112226956
-0.014767382 0.009441442 0.052414935 0.04617363 0.30254152 0.069853365 0.063553385 -0.005802204
0.023063516 0.09605642 -0.046420123 -0.009286314 -0.14417335 -0.087173656 0.1215872 -0.21415713
-0.14542864 -0.042107504 -0.07225225 0.0052902186 0.08036384 0.04919078 -0.007828809 -0.042508185
0.06501663 0.056528896 0.0021705807 0.14441451 0.04285168 -0.022436688 0.08201445 -0.09517381
0.05244868 0.0944951 -0.02406861 0.056883663 -0.00014507952 0.10357766 -0.032150347 0.011930962
-0.10694124 -0.044411507 -0.043360207 0.0283116 -0.12816818 0.07005442 -0.014503994 0.0026735747
0.11520001 0.054539967 -0.06927053 0.065406494 0.10497222 0.034981165 0.009363197 0.008401949
-0.1010256 0.013018662 0.012248739 -0.0059808083 -0.01575656 -0.097538635 0.0633597 0.0071948096
0.07277715 -0.09734012 -0.013203922 -0.06135935 -0.08357912 0.00062058924 -0.07549721 -0.075693674
0.05137407 -0.09660401 0.046590928 -0.0721949 0.029327678 -0.044671915 0.19915146 0.069741026
0.05446968 -0.0019248582 -0.043444905 0.00096079474 0.088734835 -0.023257747 -0.0034118756 0.0075087985
-0.10003623 -0.04880957 -0.032013826 -0.040793225 0.05341375 -0.08543931 -0.011680507 -0.074506246
-0.016315693 -0.0950911 -0.082230516 -0.014234889 0.09749027 0.087222695 -0.10487321 -0.13571824
-0.04060381 0.10915917 -0.08479909 0.0025572802 -0.013515063 -0.055867627 -0.10734127 -0.0153430095
-0.008945764 0.035552397 0.09746883 -0.07237167 -0.046180476 -0.053566508 -0.0872908 0.012013307
0.05541874 0.071865015 0.09158155 0.09766881 -0.042633153 -0.04563387 -0.02448713 -0.01522232
-0.003922395 0.048490983 0.09179745 0.07804862 0.25334272 0.09275854 -0.05904498 0.038440242
0.009943539 0.10885061 -0.1575347 0.084537394 -0.07840927 0.017829604 0.014464143 -0.022580601
-0.085396394 -0.13181503 0.01786764 0.1009243 0.09713252 -0.101912566 -0.08669212 -0.03695013
0.0582021 0.06932795 0.059496295 0.030259691 0.07431882 0.05200586 0.016612656 -0.051320154
0.045044743 0.037808076 -0.058673102 -0.017581334 0.058538903 0.05663724 0.02634088 -0.06724161

arith.constant6 f4 [6]
00000000: dadb a4bc 4148 04bd 07ea e13d 1269 a53c
00000010: ac0c 4fbd 5828 353c
-0.020124365 -0.03229547 0.11030965 0.020191703 -0.050549194 0.011056982

arith.constant7 f4 [128]
00000000: da23 f73c 90bf 283d 85d7 b0ba f82b cd3a
00000010: 37a8 493d e2c5 e43b 6895 7c3c 2644 cbbc
00000020: 79fa 1dbd 78f7 3c3c 2113 58bd 5cd4 8bbc
00000030: 15b7 f63b ecfa 82bc cf77 dcbb cb72 d63c
00000040: 7bc7 463b 04dd 213b 6544 a0bc de87 cc3c
00000050: 1299 a23d 90ae 08bd 865d 673d 1484 673d
00000060: 073c 8ebc 35e4 44bd a467 9b3b 9501 0bbd
00000070: 82bf 3e3c 47fc cebc 1a25 59bd 52dc 0dbc
00000080: 729a ccbc 621c 0b3d 1ad5 d5bc c2d4 59bd
00000090: 6f1c 88bc e5f5 c8bc b20b 073d d1ec 03bd
000000a0: ad3e f6bc 1fff f83c ea67 06bd 11e4 20bb
000000b0: f7f6 413b b859 65bc 3b02 c6bb 057e cebc
000000c0: 18e7 1fbd 28df cc3d 9a17 bf3b e31b 133d
000000d0: bc90 083c 9820 883d 6256 07bc 8a4a d5bc
000000e0: 21fa 0c3d 2db9 2c3d 51b7 1dbc 5a4d c5bc
000000f0: 1cdc f23c d87c ebbb 8299 35bd 5c94 58bc
00000100: 8e30 80ba ed64 e6bc f7e6 ecbb c54b f23a
00000110: 68de ca39 e8a8 86bc 94e7 82bc 002b 01bd
00000120: fbaa 82bd e694 6d3c 68c0 f0bc b86d 90bc
00000130: 1b6b 3b3d 18dd 75bd d22a ffbc 6b00 02bd
00000140: 033d 953d d4a5 743d 4ce1 aabc 042a 89bc
00000150: 3167 3bbc 7793 4b3d 09ae 11bd 43be 8d3c
00000160: b746 ad3d cb26 babc f389 c7bc e058 44bd
00000170: dfd8 d33d 7159 f93c 5138 b03d 7c44 0abd
00000180: c36b 00bd d3cd ba3b 4755 10bd c8e7 f7bc
00000190: 1f40 99bc 8d85 0ebd b5ca e5bc cf55 77bd
000001a0: 47c6 5d3d d933 153d 3b34 a2bc 3aed 6c3d
000001b0: b0ae fb3c b088 1abd 99ff cbbc 62f2 a0bb
000001c0: 167c bbbc 8fe8 9a3c 3a76 08bd 541c 3f3d
000001d0: 0068 39bc 22cd b03c 9018 d9bb 9d92 c03b
000001e0: 817d 10bc a3d1 05bd 396f 90bc 88d1 673b
000001f0: 8121 83bc ed69 9fbc b79d 3ebc 5ec7 61bb
0.030168463 0.041198313 -0.0013491964 0.0015653362 0.049232688 0.0069815973 0.015416481 -0.02481277
-0.038568947 0.0115336105 -0.052752618 -0.017069034 0.0075291493 -0.01598879 -0.0067281495 0.026177784
0.0030331302 0.0024698386 -0.019563863 0.02496713 0.07939352 -0.0333696 0.056485675 0.056522444
-0.017362608 -0.048069198 0.0047425795 -0.033937056 0.011642339 -0.02526678 -0.0530139 -0.0086584855
-0.024975989 0.033962615 -0.026102591 -0.053181417 -0.01661512 -0.024531314 0.032970138 -0.032208268
-0.030059183 0.030395089 -0.032813944 -0.002455 0.0029596665 -0.013998441 -0.0060427464 -0.025206575
-0.039038748 0.10003501 0.005831671 0.035915267 0.008335289 0.06646842 -0.008260341 -0.02603652
0.03441823 0.042168785 -0.009626226 -0.024084736 0.029645972 -0.0071865134 -0.04433585 -0.013218965
-0.0009780095 -0.028124297 -0.0072296816 0.0018485716 0.00038694148 -0.016437963 -0.015979566 -0.03153515
-0.06380268 0.014500832 -0.029388621 -0.017630443 0.04575644 -0.060025305 -0.031148348 -0.03173868
0.07287028 0.05972846 -0.020859383 -0.016743667 -0.011438177 0.04970118 -0.035566363 0.017302638
0.084607534 -0.022723576 -0.024357772 -0.04793632 0.10344099 0.030438157 0.086044915 -0.033756718
-0.03135277 0.0057008057 -0.035237577 -0.03026189 -0.018707333 -0.034795333 -0.02805076 -0.060384568
0.05414417 0.0364264 -0.019800296 0.057843424 0.030722946 -0.03772801 -0.024902152 -0.004911707
-0.022886317 0.01890972 -0.033315875 0.046657875 -0.011316299 0.02158219 -0.0066252425 0.0058768527
-0.008818985 -0.03267063 -0.01763116 0.0035372693 -0.016007187 -0.019459689 -0.011634282 -0.0034451107

sequential_6_1/conv2d_18_1/convolution f4 [32, 3, 3, 3]
00000000: 76b5 893d 97af 993c dac1 1f3d baaf 18be
00000010: f3e3 d7bd 79ff bcbd 13fc 08be 0318 6cbc
00000020: 70e7 7b3d 94bd b3bd ee37 8dbd 43f0 2fbd
00000030: b6c7 203d 86a1 3cbd 8d93 2fbe 2c42 933d
00000040: 6b25 34bd 544f 8d3c affb 89bd 419a cfbd
00000050: 819f 643d 6569 e2bd 4389 8d3d 99b0 36be
00000060: 1562 70bd 27d8 dd3d 5c29 b03c de02 073e
00000070: 7c3f d73d 9816 113e 34dc f9bd 25a0 a03d
00000080: ae55 debd d6a9 97bd 15eb d63d 6790 cfbd
00000090: 29e4 ea3d 87c6 3bbd 590c ca3d 0455 50bc
000000a0: f23d 18be 5f0f f83c c5e1 fc3d d368 bfbd
000000b0: 3378 d83c 3e50 7abd f9c2 213d 8059 013e
000000c0: 3b10 aebd 1820 16be 1408 05be af00 9c3c
000000d0: 959b 1dbe 9dd7 1d3d 9539 92bc 44d7 45bd
000000e0: c625 083e 62d1 533d 606d a73d 2f71 90bd
000000f0: 7744 5ebb b223 303d e99f 693d e63b 46bd
00000100: af0e 8b3d 0f68 923c b3f5 963d 2b81 c9bd
00000110: 5c0e f33d 3afc e2bc a76a da3c 5940 dbbd
00000120: 1bcb c2bd 67ac ea3d 41d2 b1bd 0066 b0bd
00000130: 601c d2bc 3b51 abbd 3ca9 fdbd a8e9 273d
00000140: 6e25 e83d 074d a53d 24e5 a5bd 4eb1 693c
00000150: 85a7 92bd 59c6 fd3d c57f fdbd 18ef 9f3d
00000160: 860f b9bd 916d 49be c3c3 80bd 1e82 fa3d
00000170: 4a74 0cbc 0c08 713d a853 003e 4b42 8a3c
00000180: 1049 f83d 39fd 883d 40d2 d2bd ad1b e03d
00000190: 44f9 213d aefb dcbd 159a 6cbd 61d9 ffbd
000001a0: 3118 f2bb b459 6fbd 8395 c63c 60ff 983c
000001b0: 804d de3d cb0d c1bd ed88 4c3d 78c7 673d
000001c0: 7b71 12bd e267 113d 31db f6bd c4db ecbd
000001d0: 6cd6 2ebd c71c febd 0bd1 05be 493f 89bd
000001e0: 8714 0bbe 9377 89bc 77f0 00be c812 66bc
000001f0: ceeb c23d 8c0f 1ebe 6bed 943c 4e11 883c
00000200: 724f 593d 40d2 c63d be29 a0bd e8b2 cdbd
00000210: 1551 02be f1e2 c13d 81d6 e13d e608 a8bd
00000220: a2fa edbd aa0d ccbd 6c7d 35bd 8516 cebd
00000230: 3bf1 b3bc 42d6 3b3c c7cc ae3d 96d0 56bd
00000240: 866b 663d 8fd8 7abd 7f78 453d 28bf d8bd
00000250: ee4d bfbb a369 2cbd eb61 88bd 098f 81bc
00000260: 6d34 d63d 7033 06be d858 f93d 3ba3 b1bd
00000270: a92e c03d 8588 2d3b 098b 9ebd e9c6 2e3d
00000280: 61ee c7bc 30a2 dbbc 834c ae3d 1627 2bbb
00000290: 0a92 a33c a363 993d 2835 78bd 3b38 0cbe
000002a0: 14f4 053e 9f39 0f3d 79fe c63d ca63 51bd
000002b0: ca6c 26bc 919e a0bd 83ac 3f3d 64a6 963d
000002c0: 2880 a43d 7365 be3d 25b0 2ebe 9baf 6b3c
000002d0: b084 eb3c d169 29be da87 0ebe 8008 f33d
000002e0: 9fd2 fdbd 9136 f3bc 6fa5 7cbd 363c 403d
000002f0: 4a66 403d fee6 c6bd 18aa c7bd 522c d53b
00000300: 040b 0f3e d24e 253e dd87 1e3e 8690 7b3c
00000310: 3e8d f73d 7046 be3d 053f 423d 5c15 98bd
00000320: 8634 d13d f040 fdbc 7f92 813d 76de ebbd
00000330: 839c ecbc 61ac 06be 6c84 92bd 5af1 ffba
00000340: f667 21bd c92f 58bd ee64 f43d cfd9 21be
00000350: 1a87 9b3c 3a0d f8bd d897 ddbd 9ec9 d5bd
00000360: c305 963d 2c0a c7bd e6db b73b 4895 17be
00000370: 2763 95bd bc5b c1bb 6a2f dabc c834 823a
00000380: 5157 1fbd 766f 1abe a6a5 c0bd 83bb eabd
00000390: fb06 ad3b 177c 01be 054f 923d c692 a4ba
000003a0: 5879 80bd 548a 193c a413 9bbd 6f0e 90bd
000003b0: c3b5 d43d c282 2dbd d9d0 e93d 9848 3cbd
000003c0: dda7 ca3d bea8 2b3d ff1e 53bd c598 18be
000003d0: c57c 70bd e5ee db3c a3ce ae3d 82b5 1cbb
000003e0: ec7c 7ebd 14ff e0bc aeea 843d 8522 6abc
000003f0: 523d 0abe 6932 6c3d 31b8 dc3d 76d7 1e3d
0.06724064 0.018760486 0.03900323 -0.14910784 -0.10541525 -0.09228415 -0.13377409 -0.014410022
0.061500013 -0.087763935 -0.06895433 -0.04295374 0.03925296 -0.04605248 -0.1714613 0.07190356
-0.043980997 0.01724974 -0.06737458 -0.101368435 0.055816177 -0.11055259 0.06910946 -0.17840804
-0.05868729 0.108322434 0.021504097 0.13184687 0.105101556 0.14168775 -0.122002035 0.07843045
-0.10856186 -0.074054405 0.10494057 -0.101349644 0.11469299 -0.045843627 0.098656364 -0.012715582
-0.1486738 0.030280767 0.123477496 -0.093461655 0.026424503 -0.06111168 0.03949258 0.12631798
-0.084991895 -0.1466068 -0.12991363 0.019043295 -0.15391381 0.038535703 -0.017849723 -0.048300996
0.1329566 0.051713355 0.081751585 -0.07052838 -0.003391532 0.04300279 0.057037268 -0.048396967
0.0678991 0.017871885 0.07371082 -0.0983909 0.11867973 -0.027708162 0.026662184 -0.10705633
-0.095113955 0.114586644 -0.08682681 -0.08613205 -0.025648296 -0.08365103 -0.123857945 0.040994316
0.11335264 0.080713324 -0.08100346 0.014263464 -0.07160858 0.123913474 -0.12377886 0.078092754
-0.09036164 -0.19670703 -0.062873386 0.12231849 -0.008572647 0.058845565 0.12531912 0.016877314
0.121233106 0.066889234 -0.10294008 0.10942779 0.03954436 -0.107901916 -0.05776413 -0.124926336
-0.0073881377 -0.058435157 0.024241215 0.01867646 0.10854626 -0.09426459 0.04993527 0.056586713
-0.035752755 0.03549946 -0.12053526 -0.115653545 -0.042684957 -0.124078326 -0.13068025 -0.06701524
-0.1358205 -0.01678065 -0.1259173 -0.014042564 0.095176324 -0.15435618 0.018179616 0.016609814
0.05305428 0.09708071 -0.07820462 -0.10043889 -0.12726243 0.09467114 0.110272415 -0.08204822
-0.1162007 -0.09963544 -0.044309065 -0.10062889 -0.021965614 0.011464657 0.08535152 -0.052445017
0.056254886 -0.061241683 0.048210617 -0.10583335 -0.0058381474 -0.04209293 -0.06659301 -0.015815275
0.10459218 -0.1310556 0.12175149 -0.08673712 0.093839 0.0026479077 -0.077413626 0.042670164
-0.02440566 -0.026810735 0.08510687 -0.0026115826 0.019967098 0.07489707 -0.06059757 -0.13693325
0.1308139 0.03496706 0.097165056 -0.051120557 -0.010157773 -0.07842744 0.04679538 0.07355955
0.08032256 0.09296694 -0.17059381 0.014385129 0.028749794 -0.16544272 -0.13919011 0.118668556
-0.123936884 -0.029689105 -0.061681207 0.04693242 0.04697255 -0.09712027 -0.0974924 0.0065055275
0.13969046 0.16143349 0.15481515 0.015354281 0.12087487 0.09290779 0.04742338 -0.07425949
0.10215096 -0.030914754 0.0632677 -0.115170404 -0.028883224 -0.13151695 -0.07154164 -0.0019526884
-0.039405786 -0.052779946 0.11933313 -0.15805744 0.01898532 -0.12111898 -0.108199775 -0.10438846
0.07325318 -0.09718737 0.0056109307 -0.1480304 -0.072943024 -0.005900828 -0.026633937 0.0009933943
-0.03890163 -0.15081581 -0.09406595 -0.11461546 0.005280373 -0.12644993 0.07143978 -0.0012555949
-0.062731445 0.009371359 -0.075721055 -0.07034003 0.10386231 -0.04236103 0.11416788 -0.04596767
0.09895299 0.041908972 -0.051543232 -0.14902027 -0.05871274 0.026847312 0.085355066 -0.0023911898
-0.062130854 -0.02746538 0.06490074 -0.014290457 -0.13499954 0.057665262 0.10777319 0.0387797

sequential_6_1/conv2d_18_1/Relu;sequential_6_1/conv2d_18_1/BiasAdd;sequential_6_1/conv2d_18_1/convolution; f4 [32]
00000000: aa73 d8bc 1866 893d cc07 24bd 3d40 a4bd
00000010: b985 16bc 98df 2dbc 50b1 ffbc 5eef 803d
00000020: 96e1 03bc 57a9 473c d8af 093e 9e2b 75bc
00000030: 3bf5 1fbd e4b7 ca3c 0695 253d 31aa 37bd
00000040: 0ee7 c13d d5c3 49bc 1641 40bd 9069 223d
00000050: 1afb 3ebc 8ab1 08bd 0000 0000 06f6 8a3c
00000060: 1e8c 22bd 0000 0000 e92d 8cbb d88a 173d
00000070: dc8e 303d 007a 083d 27ad 79bc 6095 2fbd
-0.02642234 0.06708926 -0.0400465 -0.08020065 -0.009187155 -0.010612391 -0.031212479 0.06295656
-0.008049389 0.01218637 0.13445985 -0.014964012 -0.03905223 0.024745889 0.040425323 -0.04484004
0.09467898 -0.012314756 -0.04693707 0.039651453 -0.011656547 -0.03337244 0.0 0.016963016
-0.039684407 0.0 -0.004277934 0.036997646 0.04310499 0.033319473 -0.015239037 -0.042867064
